NHL_best_model.pth (torch, 5326 bytes, 5 tensors)

hidden1.weight f4 [20, 22]
000000 ad bf 14 3d 4a d4 71 3f a3 b5 e8 bd 32 df e1 bd
       0.03631561 0.9446455 -0.113627695 -0.11028899
000010 65 84 7d 3c e9 4f 18 be df f7 a5 bd 1d dc b0 3d
       0.01547346 -0.14874233 -0.08103918 0.08635733
000020 77 f0 ee bd f7 cf 34 be 56 76 13 3e 5d 81 70 bd
       -0.11666959 -0.17657457 0.1440061 -0.05871712
000030 bd 34 8e bd 6b ec e8 bc 54 fb 0d be 2c 03 8e 3d
       -0.06943653 -0.028433045 -0.13865405 0.06934199
000040 4a d0 d1 bd 5b 88 3a be 78 e1 47 3d 2a 09 18 3e
       -0.10244806 -0.18216078 0.048799008 0.14847246
000050 28 99 a1 3c 4b c6 3b be 30 fa 03 3d 43 3f 3a be
       0.01972635 -0.18337362 0.03222102 -0.18188195
000060 80 86 fe bc b4 b5 17 be b2 88 3e be 68 3b da 3d
       -0.031069994 -0.14815408 -0.18606833 0.10655862
000070 70 3c 93 bc 02 90 02 3e d0 2a 7d 3d 32 41 0f be
       -0.017973155 0.12750247 0.061808407 -0.13989714
000080 98 33 42 3d 68 ad e4 3d 77 89 1a be e4 96 eb 3d
       0.047412485 0.11165887 -0.15091501 0.115033895
000090 2a e1 15 3e 06 d2 4e 3e 18 ec 5b 3d da 2e d5 bd
       0.14636675 0.20197305 0.053691953 -0.10409327
0000a0 ec d0 66 bd 09 13 1f be 80 dc ae 3b bc f7 42 3e
       -0.056351587 -0.15534605 0.0053363442 0.19039816
0000b0 3e 0e 8d bd a8 bd 65 bd 95 ab 41 be cc 44 19 3e
       -0.06887482 -0.056089073 -0.1891311 0.1496765
0000c0 52 1f a1 bd 28 ea 1a 3d d4 24 0d 3e b0 1d 77 bd
       -0.07867302 0.037820965 0.1378358 -0.060331047
0000d0 64 d1 0c 3d 18 cc 99 3c 7c 39 39 be 40 bb 93 bb
       0.034379378 0.018774077 -0.18088335 -0.004508406
0000e0 12 d9 2d be d2 5e 46 3e 78 b7 23 be a0 f8 ac 3d
       -0.16977337 0.19372109 -0.15987957 0.08445859
0000f0 ba 80 91 bd f2 6c 39 3e 60 95 3e 3e e0 56 20 bd
       -0.07104631 0.18107966 0.1861167 -0.03914535
000100 e0 48 ad 3c 00 72 22 3b 19 18 26 be 32 f1 85 bd
       0.021152914 0.0024787188 -0.1622013 -0.06540145
000110 5d 18 b5 bd 6b 47 3a be 36 2e 30 be 00 1d 35 be
       -0.088425376 -0.18191306 -0.17205128 -0.17686844
000120 00 3d 58 be 60 50 75 bd e8 51 4b 3e ca 35 4e be
       -0.2111702 -0.059891105 0.19855464 -0.20137706
000130 88 ea aa bc 7c ca 1b be 68 cc 11 3d b3 ca bf bd
       -0.020863786 -0.1521396 0.035595328 -0.09364834
000140 18 df 5b bd 7c 04 b7 bd 4e d6 f0 bd 40 b6 e9 3d
       -0.053679556 -0.08936402 -0.117596254 0.114117146
000150 fa d2 0c be 10 73 3c 3e 54 2b d1 3d 88 1d 38 3d
       -0.13752356 0.18403268 0.10213342 0.04495004
000160 84 d6 b2 3d 8a 58 3a be 62 a6 27 be 9c 2a 56 3e
       0.08732322 -0.18197837 -0.16372064 0.20914692
000170 f0 bb cd 3d c5 d0 50 be 64 99 14 be 60 77 ff bb
       0.10045612 -0.2039214 -0.14511639 -0.007796213
000180 f9 cc ba bd c8 f1 fc 3d dd 6f 4a be c0 36 72 bb
       -0.09121127 0.123508036 -0.19769235 -0.0036958903
000190 18 f6 06 3e b2 7a 49 be 58 34 4c 3e a8 88 4e 3e
       0.13179815 -0.19675711 0.19941843 0.20169318
0001a0 98 a4 ce 3c 67 1a 1c be 3c 5f fa 3d 30 b3 6a bd
       0.025224969 -0.15244447 0.12225196 -0.057299793
0001b0 28 8d 33 3d bc 4f d9 3d fd cf 00 be 36 ab 59 c1
       0.04383579 0.10610911 -0.12579341 -13.6043
0001c0 8a b1 d8 bd 1c 04 c1 3d 08 5e 05 be 5d ba f8 3b
       -0.10580738 0.09424612 -0.13024151 0.0075905756
0001d0 d1 45 32 be 68 c2 41 be 12 ef ff bc d2 8f 44 3e
       -0.17409445 -0.18921816 -0.031241927 0.19195488
0001e0 3f c4 3f 3d 87 db 10 3e 33 51 34 be 45 c0 31 3e
       0.046818014 0.14146243 -0.176091 0.17358501
0001f0 e6 a2 6a bd 74 c6 12 bc 41 3b b3 3c 30 e8 2c be
       -0.05728426 -0.008958448 0.02187884 -0.16885448
000200 28 03 fe bd e0 bb c8 3d 81 20 48 be d3 f5 23 3e
       -0.12402946 0.09801459 -0.1954365 0.16011743
000210 6b 2e a8 3d 48 0c 87 c0 65 8e b8 3d a6 8f 71 3d
       0.082119785 -4.220249 0.090115346 0.058974884
000220 37 d1 43 3e bc 55 ec 3d c5 de 78 bd 4f da 82 3d
       0.19122778 0.1153979 -0.060759325 0.06389295
000230 f8 40 46 3e 03 24 32 bd cc 2a bf bd bb f4 b6 3d
       0.19360721 -0.043491375 -0.09334335 0.089333974
000240 d6 a4 6b bd 09 70 c6 3d 70 28 2c 3e 2a dc 7d bb
       -0.057530247 0.09689338 0.168123 -0.0038735964
000250 0b 0e 55 3e 70 73 4d 3e 09 d2 02 3e f0 77 ad bd
       0.20806138 0.20063567 0.12775435 -0.08470142
000260 59 78 92 3d 72 c6 2a be ea ba 58 3e 13 6b 8e 3f
       0.07151861 -0.16677263 0.21165052 1.1126426
000270 b6 01 fb bd dc 60 97 3d 45 89 45 be 7f 17 5b 3d
       -0.12256186 0.07391521 -0.19290645 0.053489204
000280 df 08 0c 3e c6 df c5 3d 44 c2 e0 bd 38 fe 9e 3d
       0.13675259 0.09661822 -0.10974553 0.07763332
000290 1b ab 17 3d 59 4c ad 3d 42 97 4b be 5e 06 02 be
       0.037028413 0.08461828 -0.19881919 -0.12697741
0002a0 70 6d b6 35 60 ec 24 be 33 28 1d 3d 00 00 7d 3d
       1.3591907e-06 -0.16105795 0.038368415 0.061767578
0002b0 cf f4 cf bd 2c 21 0b 3d c7 64 ad 3d 85 d4 b9 3c
       -0.101541154 0.033967182 0.084664874 0.022684345
0002c0 22 cb 58 3e ca 2d 3c be e6 ba 0c be f0 27 ef 3d
       0.21171239 -0.18376842 -0.13743171 0.11677539
0002d0 94 0c cf 3d e2 92 2c 3e b9 93 28 be 84 42 72 bd
       0.10109821 0.16852906 -0.16462602 -0.059145465
0002e0 04 3d d1 3d f8 3f 35 3d 45 34 07 be ee 5e e4 bd
       0.10216716 0.04425046 -0.13203533 -0.11150919
0002f0 22 cb 16 be d0 bd 9a bd 1c d8 0b 3e 72 83 19 3e
       -0.14725927 -0.07555735 0.13656658 0.14991549
000300 ac 31 c7 3d 4e 8a 48 be d2 6c 87 bd b8 8e 4b 3e
       0.09726271 -0.19584009 -0.06612553 0.19878662
000310 60 0f 4d 3c f0 93 e9 bd b1 92 29 3d 4b 7b 14 c0
       0.012515873 -0.1140517 0.04139966 -2.3200252
000320 6f 13 16 3b be 6a c9 3d c5 f7 15 be 4f c9 28 be
       0.0022899767 0.098348126 -0.14645298 -0.16483043
000330 eb 24 e5 3d b7 28 23 be 71 f3 2d be 3e 90 5e bd
       0.11188682 -0.159335 -0.16987397 -0.05433678
000340 d5 fd f5 3c 95 a8 bb bc 85 08 50 3d e0 b5 33 be
       0.030028263 -0.022907535 0.050789375 -0.17549849
000350 a8 fa f5 bc f2 a0 53 3d 66 e0 df bd dc ad 6b bd
       -0.030026749 0.05166716 -0.109314725 -0.057538852
000360 72 0b 97 bd 08 ad 95 3c 41 bd 4c 3e 9d 30 05 3d
       -0.0737523 0.018270984 0.1999407 0.032517064
000370 44 a5 3e bd d8 9c 3c bd c6 87 a8 bd 86 b6 2d 3e
       -0.04654433 -0.046048015 -0.08229022 0.16964158
000380 64 6b 89 3d bc 3b 12 3d c8 40 2e bd ac 2f 91 3d
       0.06709936 0.0357015 -0.04254225 0.07089171
000390 da b5 25 be e8 06 44 3d 00 e3 27 bc 06 ee 55 3e
       -0.16182652 0.04785815 -0.010246992 0.2089158
0003a0 38 f1 21 3d 14 e3 40 bd 9c 96 51 3e 1a e1 42 be
       0.039536685 -0.04709156 0.20467609 -0.19031182
0003b0 ee 73 26 be f8 4f fd 3c ca 99 04 be c2 ae 3f be
       -0.16255161 0.030921921 -0.12949291 -0.18719009
0003c0 26 20 3e 3e 86 ce 03 be 1e 78 68 3e da 79 9c 40
       0.18566951 -0.12871751 0.22702071 4.8898745
0003d0 e7 ad 87 bd 73 48 e3 bd db 6d 0f 3d 4e 76 3a 3e
       -0.06624966 -0.11097803 0.035016876 0.18209192
0003e0 dd bf 30 be f2 89 be 3d 40 9f f1 3d 70 07 4c 3e
       -0.1726069 0.09303655 0.11797953 0.19924712
0003f0 c5 ab 35 3e 1c 04 54 be 3e a0 3c be 28 6c d8 3c
       0.17741306 -0.20704693 -0.18420503 0.02641876

hidden1.bias f4 [20]
000000 c5 c4 62 3a da 44 31 3e 3c 14 53 be ac ff ab 3d
       0.0008650537 0.17311421 -0.20613188 0.08398375
000010 50 ba ba 3d 6c e0 8f 3d aa e9 01 3e bc 9c f2 3d
       0.091175675 0.07025227 0.12686792 0.11846301
000020 80 3e 34 bb 9f e0 50 3e 68 0b ed 3d 30 e8 45 bd
       -0.0027503073 0.20398186 0.11574441 -0.048317134
000030 a8 8b 1c 3e 9f da 1c 3e a9 11 2b be 3c 91 ba 3d
       0.1528765 0.15317772 -0.16705956 0.091097325
000040 70 71 3e 3d d0 93 15 3e a4 4b d1 3d 46 c6 25 be
       0.0464949 0.14607167 0.102195054 -0.16188917

hidden2.weight f4 [10, 20]
000000 82 61 c7 c0 08 76 0c be de 2f 62 be e0 38 7b 3d
       -6.230653 -0.137169 -0.22088572 0.061333537
000010 58 93 7f bd b0 51 d3 c0 f0 92 dd bf 2b 65 ff c0
       -0.062396377 -6.6037216 -1.7310467 -7.9810996
000020 fd ab f9 bd 0c 46 f1 c0 d4 93 88 bd 4f 99 f8 c0
       -0.12191007 -7.5398006 -0.06668821 -7.7687144
000030 0c d8 5b 3e fa 02 a2 c0 13 9e eb bf 41 91 46 c0
       0.21469134 -5.0628633 -1.8407615 -3.1026156
000040 6f ab e3 bd a0 15 fc bf a3 76 ed bf 62 a6 1c 3e
       -0.11116683 -1.96941 -1.855183 0.15297845
000050 40 91 7e 3d 28 d2 f7 bc 5b f1 ec bd 86 f7 49 3e
       0.06215024 -0.030251577 -0.115694724 0.19723329
000060 20 01 35 bc 77 88 39 be 98 97 3a 3d 47 e3 5f be
       -0.0110476315 -0.18118463 0.045554727 -0.21864043
000070 48 00 a9 3d c0 71 ea bc 30 8f 33 3d d8 95 40 3e
       0.08252007 -0.028618693 0.043837726 0.18807161
000080 e8 33 9d 3d 54 7b 40 be a8 94 7e 3d f0 02 a1 3c
       0.07675916 -0.18797046 0.06215349 0.019654721
000090 e6 79 3e be 68 32 1b bd b8 e9 b0 bc bd c4 27 be
       -0.18601188 -0.037889868 -0.02159582 -0.16383643
0000a0 2f 3b 4e 40 fe c4 94 bd 80 20 f8 3a d0 39 2e bc
       3.2223623 -0.07264136 0.0018930584 -0.010633901
0000b0 8a f3 16 be f6 73 55 40 34 4b 74 3f 08 a1 81 40
       -0.1474134 3.3352027 0.9542725 4.050907
0000c0 40 4e 28 be 06 7a 7c 40 46 44 ef bd 45 28 87 40
       -0.164361 3.9449477 -0.11682944 4.2236657
0000d0 e8 e5 44 3d 9b 4f 29 40 d2 b3 76 3f 99 01 a9 3f
       0.04807082 2.6454837 0.96368134 1.3203613
0000e0 e8 e0 30 be 53 f2 4e 3f 55 2d 43 3f 40 14 34 3c
       -0.17273295 0.8083851 0.76241046 0.010991156
0000f0 cc 17 4a bd b8 23 af bd dc d3 16 bd 04 4b be 3d
       -0.0493391 -0.08551735 -0.03682314 0.09291652
000100 b0 e2 ab bc 41 cc 00 be 05 07 64 be 78 4f 58 be
       -0.020982116 -0.12577917 -0.22268303 -0.21124065
000110 d2 f5 26 3e d0 31 41 be 00 df 9e 3b 4e cb 40 3e
       0.1630471 -0.18866658 0.004848361 0.18827555
000120 90 87 31 3d 04 72 d2 3d 50 cb 76 3c 34 0b 0d 3e
       0.043342173 0.10275653 0.015063122 0.13773805
000130 d8 5a c3 3c 5e 02 26 be 82 80 3a 3e 30 8f 42 3c
       0.023847029 -0.1621184 0.18213084 0.011874959
000140 9a db 1d be 90 8c 80 bd c8 d6 20 bd 82 ce 24 3e
       -0.15415803 -0.0627681 -0.03926733 0.16094401
000150 80 b8 29 bb 67 46 0e be e0 51 fc 3c a8 ff 66 3d
       -0.0025897324 -0.13894044 0.03080076 0.056396157
000160 2c f7 9f 3d dd 6f ff bd 94 e7 bc bd 64 5c 1e bd
       0.07810816 -0.12472508 -0.092238575 -0.03866233
000170 58 e4 2e 3e da fd 2c 3e 0a ef 3a be 7a f4 61 be
       0.17079294 0.16893712 -0.18255249 -0.22065917
000180 60 d7 50 bc 90 0a 7a bc a6 3c 0b be 0c 56 84 3d
       -0.012746662 -0.015261307 -0.13597354 0.06461725
000190 80 86 75 3d 44 e2 89 3d 4e 69 af bd e0 fd 3e 3d
       0.059942722 0.0673261 -0.08565007 0.046628833
0001a0 0c f7 bf bd 94 fe a9 bd 28 cf 14 3d 64 21 df bd
       -0.09373292 -0.0830051 0.036330372 -0.10895041
0001b0 38 17 73 3d 48 13 36 bd 6c 90 d7 3d a2 0d 1f be
       0.059348315 -0.04445198 0.10525593 -0.15532544
0001c0 3c d5 66 bd ca c6 3d 3e f0 b8 f0 3d 98 97 59 3e
       -0.0563557 0.18532863 0.11754024 0.21249235
0001d0 24 a1 02 3e da 7a 1a be 08 37 c8 bc 94 c9 c9 3d
       0.12756783 -0.15085927 -0.024440303 0.09852901
0001e0 10 12 95 c0 30 52 3d bc 6a e8 57 3e 80 d3 13 3e
       -4.658455 -0.01155524 0.21084753 0.1443615
0001f0 24 49 ad 3d 53 9a a2 c0 b3 ab 94 bf 2e 35 c1 c0
       0.08461216 -5.0813384 -1.1614898 -6.0377417
000200 5c 5e 19 bd 9e 16 b4 c0 d8 0a 33 3e 6b 3f ba c0
       -0.037443504 -5.627761 0.17484605 -5.8202415
000210 30 d5 11 bc 95 cd 5d c0 13 8c a7 bf 1c 6e 01 c0
       -0.0089009255 -3.4656727 -1.3089622 -2.0223455
000220 70 2d 8a bd 13 f3 93 bf 97 dc 9e bf 68 5f 79 bd
       -0.06746948 -1.1558555 -1.2411069 -0.060882002
000230 5c 11 9a 40 da d0 a3 bd 98 f8 bf 3d fa b0 64 3e
       4.814619 -0.0799882 0.09373587 0.22333136
000240 f2 31 03 3e 25 e2 9e 40 14 11 a4 3f 7a bf cb 40
       0.12812021 4.9651055 1.2817712 6.3671236
000250 f8 f4 4b 3d f8 3c be 40 3c 6f 62 3e 37 d9 c7 40
       0.049794167 5.9449425 0.22112745 6.2452655
000260 a4 ec 2c bd 93 0e 67 40 e6 87 c3 3f 8a db 1a 40
       -0.042217866 3.6102645 1.5275848 2.4196496
000270 5c aa 3b bd 22 d3 c6 3f 41 e4 ad 3f 1e 48 2b be
       -0.045816764 1.5533183 1.3585283 -0.1672673
000280 36 c8 69 40 b0 b2 2e 3c b6 e5 2c 3e 60 9d 63 3d
       3.652845 0.01066272 0.16884503 0.055570006
000290 f0 bd 67 3d 20 60 6e 40 55 3c 99 3f 81 b4 94 40
       0.056577623 3.724617 1.1971537 4.647034
0002a0 30 d9 11 bc 60 3b 86 40 b6 a8 02 3e 6a 05 97 40
       -0.008901879 4.194748 0.1275967 4.719411
0002b0 18 51 30 3e b6 7e 35 40 e1 35 9c 3f 49 66 e8 3f
       0.17218435 2.8358588 1.2203943 1.8156215
0002c0 42 9d 55 be 03 98 51 3f 59 0e 96 3f 0c b1 a8 3d
       -0.2086077 0.81872576 1.1723129 0.08236894
0002d0 c8 e3 1a 3d a6 89 28 be 9e 09 43 3e cc 27 a1 3d
       0.037814885 -0.16458759 0.19046637 0.07868919
0002e0 93 bd 08 be d0 1e 87 bd 26 db 0e 3e f0 dd 62 3d
       -0.13353567 -0.06597674 0.13950786 0.055387437
0002f0 ef c9 54 be 50 17 f0 3c 34 46 50 be a9 8e de bd
       -0.20780157 0.029307991 -0.2033928 -0.10867054
000300 22 7f 00 3e df c3 ca bd 10 f9 1b be b6 75 60 3e
       0.12548497 -0.09900641 -0.15231729 0.21919903
000310 b2 55 29 3e 1a 5f 9a bd 20 32 6a 3d 00 ad 18 3a
       0.16536596 -0.075376704 0.05717671 0.0005824119

hidden2.bias f4 [10]
000000 6c ad 2d 3e cb 2d 50 be d9 1e 27 be 50 5c 8c bc
       0.16960686 -0.20329969 -0.16320361 -0.017133862
000010 18 f6 a0 3d d2 b8 0d 3e eb 45 00 bd da 51 e6 3b
       0.07859439 0.13840035 -0.03131668 0.0070288004
000020 ff c4 a3 3d 40 ca 8b bb
       0.079965584 -0.0042660534

hidden3.weight f4 [1, 10]
000000 ba 05 6f 41 56 ae b0 bd 34 a2 2c 40 b2 c6 7b 3e
       14.938898 -0.08627002 2.6974 0.24587515
000010 53 2e 93 3e 28 18 0b 3d 20 43 bd 3f a0 38 51 41
       0.2874628 0.033958584 1.478611 13.076324
000020 f9 99 ea 3f 13 81 20 be
       1.8328239 -0.15674238
